web-ui/data.pth (torch, 5015 bytes, 6 tensors)

li1.weight f4 [8, 54]
0	0x3f0cd516	0.55012643
1	0x3cdebe78	0.027190432
2	0x3ddd04ad	0.107919075
3	0x3e9f0ae4	0.31062996
4	0x3ddd2fbd	0.10800121
5	0x3f0422d9	0.51615673
6	0x3bb2f8a5	0.0054617696
7	0x3eb30d96	0.34971303
8	0xbb7fc065	-0.0039024588
9	0x3e2ac857	0.16677986
10	0x3d901ff4	0.070373446
11	0xbd0852aa	-0.03328196
12	0xbee14f79	-0.44005945
13	0xbea537dd	-0.32269183
14	0xbdbdf258	-0.09274739
15	0x3e1795d0	0.14803243
16	0xbd78f85a	-0.06078372
17	0x3f11bde2	0.56930363
18	0xbdf46650	-0.11933577
19	0x3e8f38eb	0.27973112
20	0x3ea2e12a	0.31812412
21	0x3e8bbb14	0.27291167
22	0x3af2f9e9	0.0018537614
23	0x3e9431f4	0.2894436
24	0x3c160db2	0.009158539
25	0x3e8bef08	0.27330804
26	0xbeaaac18	-0.33334422
27	0xbd8713bf	-0.06595563
28	0xbe483b86	-0.19553956
29	0xbe29cd2d	-0.16582175
30	0x3ec708f5	0.3887402
31	0xbdd2f291	-0.10300172
32	0x3e85d9df	0.26142785
33	0xbcf43352	-0.029809628
34	0xbe4f2d03	-0.20232014
35	0xbd85b6c3	-0.06529
36	0xbcee0a69	-0.029057698
37	0xbe53ad21	-0.20671512
38	0xbda5cc03	-0.08095553
39	0xbda78ee5	-0.08181552
40	0x3ec3e6cd	0.38262025
41	0xbe807785	-0.25091186
42	0xbe508a77	-0.2036532
43	0xbde1197f	-0.10991191
44	0xbd84b085	-0.06478981
45	0xbdf74a89	-0.12074763
46	0x3f632aaa	0.88736975
47	0x3e610c6d	0.21977396
48	0xbcfaa3fc	-0.030595772
49	0xbeb08fda	-0.3448475
50	0x3e033cb0	0.12816119
51	0xbe128666	-0.14309081
52	0xbddbccfe	-0.107324585
53	0x3e577f3b	0.21044628
54	0x3e0d8d91	0.13823535
55	0x3f0f4864	0.55969834
56	0xbe844981	-0.2583733
57	0x3c1ac664	0.009446714
58	0xbea5a997	-0.3235595
59	0x3eae2d65	0.34019008
60	0xbe166dd3	-0.14690332
61	0xbe8e88fd	-0.2783889
62	0xbe0f0aff	-0.13969038
63	0xbe29b9a1	-0.16574718
64	0xbe2ec497	-0.1706718
65	0xbe3f25ba	-0.18666735
66	0x3eb63663	0.3558837
67	0xbdc01e45	-0.093807735
68	0x3f048aae	0.5177411
69	0xbde9e9bd	-0.11421535
70	0xbde0824f	-0.109623544
71	0x3e55afac	0.20867795
72	0xbe07c4cd	-0.13258667
73	0xbe8f7b53	-0.28023776
74	0x3e3121b8	0.17298019
75	0xbe8f7df5	-0.28025785
76	0xbe8f7fe0	-0.28027248
77	0xbe5ae59d	-0.21376653
78	0xbe39b372	-0.18134859
79	0xbe5435e9	-0.2072369
80	0xbdb0888e	-0.08619796
81	0x3f2ad873	0.66736525
82	0xbdfb63fe	-0.12274931
83	0x3eec6c7a	0.4617651
84	0xbd1274b8	-0.035755843
85	0x3b23deee	0.0025004703
86	0xbd92ac3c	-0.07161757
87	0xbda56799	-0.080764
88	0x3f1db4d9	0.61604077
89	0x3c0d0e3c	0.008609351
90	0xbdb671c4	-0.08908418
91	0xbdb12c4a	-0.086510256
92	0x3d81cb15	0.06337563
93	0xbc8afb32	-0.016965482
94	0xbe5b4343	-0.21412377
95	0xbdd53a89	-0.10411555
96	0xbd090ff5	-0.033462483
97	0x3ebe92ad	0.3722128
98	0xbdb407fd	-0.08790586
99	0x3ee99a8f	0.4562573
100	0x3f0444da	0.5166756
101	0x3dd3d5f0	0.1034354
102	0xbda8c59e	-0.082408175
103	0xbe1e277b	-0.15444748
104	0xbe278598	-0.16359556
105	0xbe1a0f51	-0.15044905
106	0xbdc0d46c	-0.09415516
107	0x3e83a1c9	0.2570937
108	0x3e91c362	0.28469378
109	0x3e54589d	0.20736928
110	0x3e888832	0.2666641
111	0x3ed0ddb8	0.40794158
112	0x3e999168	0.2999375
113	0x3f3abcf4	0.7294457
114	0x3ee746ce	0.45171207
115	0x3ee1827c	0.44044864
116	0x3e5b3c11	0.21409632
117	0x3eac3567	0.33634493
118	0x3f0b01ab	0.5429942
119	0xbe5a214e	-0.21301767
120	0xbddd870d	-0.108167745
121	0xbf020019	-0.507814
122	0x3cb64e38	0.022254094
123	0xbe2791a0	-0.16364145
124	0x3f1e2beb	0.61785764
125	0x3f3cb6d3	0.7371647
126	0xbeaa70d7	-0.33289215
127	0x3efd7177	0.4950063
128	0x3d4dc343	0.050235044
129	0x3f060a8b	0.5235984
130	0x3f4148cf	0.7550172
131	0x3e5a3b58	0.213117
132	0x3e36b200	0.17841339
133	0x3ee1041c	0.43948448
134	0xbebd614a	-0.36988288
135	0x3e2cdddb	0.16881506
136	0xbe0d4913	-0.13797407
137	0xbd368933	-0.044564437
138	0x3ec772af	0.38954684
139	0xbefc895b	-0.49323544
140	0x3e08dae4	0.1336475
141	0x3e9b1006	0.30285662
142	0x3defe3d8	0.117133796
143	0xbe9b6769	-0.30352333
144	0xbd946ed7	-0.072477035
145	0x3ea5bfdb	0.32372937
146	0x3eabb5a4	0.33537018
147	0x3e78c4ae	0.24293777
148	0x3f176945	0.59145004
149	0xbec849f7	-0.3911893
150	0xbe5a3313	-0.21308546
151	0x3c72a2cc	0.014809322
152	0x3dd5d4b9	0.10440964
153	0x3e48df64	0.19616467
154	0x3d85bfa4	0.06530693
155	0x3da14129	0.078737564
156	0xbd9ee33a	-0.07758184
157	0xbeac941c	-0.33706748
158	0xbe927983	-0.2860833
159	0xbe04d050	-0.1297009
160	0x3e72f41e	0.23725936
161	0x3e91131a	0.28334886
162	0xbe74a162	-0.23889688
163	0xbe98bd2d	-0.2983183
164	0x3f4a0e2d	0.7892788
165	0x3ef045bb	0.469282
166	0x3eef54da	0.46744424
167	0xbe7f7bc4	-0.24949557
168	0x3f14eb0a	0.5817114
169	0x3f04ae51	0.51828486
170	0x3f09abad	0.5377758
171	0x3f02b1a2	0.51052296
172	0x3f18059b	0.59383553
173	0x3ef5c714	0.48003447
174	0x3eb1ca2b	0.34724554
175	0x3eea5f10	0.45775652
176	0xbd9c0b0d	-0.07619295
177	0x3eb058e2	0.34442812
178	0x3f32e1ae	0.6987561
179	0xbeccd507	-0.40006277
180	0xbd6e6697	-0.058203306
181	0x3f37466f	0.7159185
182	0xbeb8d643	-0.3610097
183	0x3f405f92	0.7514583
184	0x3f2382f1	0.63871676
185	0x3f2dd371	0.6790076
186	0x3f14aa15	0.58072025
187	0x3f0f0b66	0.5587677
188	0xbcfeacaf	-0.031088201
189	0xbebda543	-0.37040147
190	0xbe37ea40	-0.17960453
191	0xbec0e2d0	-0.37673044
192	0xbe2e3c3c	-0.17015165
193	0x3f0141ec	0.50491214
194	0x3d1cacc3	0.038250696
195	0x3f35f939	0.7108341
196	0xbe7546f6	-0.2395285
197	0x3e8b1a2c	0.27168405
198	0xbcb946c2	-0.022616748
199	0x3f34b1a1	0.7058354
200	0x3f13cd76	0.57735384
201	0x3ec18dd4	0.3780352
202	0xbde8476e	-0.11341749
203	0xbe1c72c1	-0.1527815
204	0x3ecdc7b8	0.40191436
205	0xbda927a8	-0.08259517
206	0x3f4dd1ff	0.80398554
207	0xbe1be8b5	-0.1522549
208	0xbf44f8ff	-0.7694244
209	0xbe75d8fc	-0.24008554
210	0x3e92eaf6	0.28694886
211	0xbcfd578e	-0.030925538
212	0x3f0160da	0.5053841
213	0xbd620a4f	-0.055185612
214	0x3f1780a3	0.5918066
215	0x3e85ad68	0.2610886
216	0x3f11da31	0.5697356
217	0xbce97545	-0.028498301
218	0xbe66cd95	-0.22539361
219	0xbe30258c	-0.17201823
220	0xbdb4b5fc	-0.08823773
221	0xbe946025	-0.28979602
222	0xbea527a3	-0.32256803
223	0xbeaf7f17	-0.3427665
224	0xbe96185e	-0.29315466
225	0xbeee5a3b	-0.46553215
226	0xbe8dd094	-0.27698195
227	0x3f107c7c	0.5643995
228	0xbd52078f	-0.05127674
229	0x3f019588	0.5061879
230	0xbe0f79dd	-0.14011331
231	0x3ebae6b6	0.36504143
232	0xbe7841d4	-0.24243861
233	0xbecddd67	-0.4020798
234	0x3e58dd07	0.21178065
235	0xbf013276	-0.5046762
236	0x3ef05aa5	0.46944156
237	0xbef667f9	-0.481262
238	0xbeed3e0e	-0.46336406
239	0x3ed32539	0.41239336
240	0x3e85e751	0.26153043
241	0xbe3aeef9	-0.18255223
242	0x3e0ec216	0.13941225
243	0xbe996a44	-0.29963887
244	0x3e6f7ccc	0.2338745
245	0xbe7aebd2	-0.24504021
246	0xbe694093	-0.2277854
247	0x3f00c342	0.5029794
248	0x3e8ea858	0.2786281
249	0xbee37b2d	-0.44429913
250	0xbe0926e1	-0.13393737
251	0x3f0c332a	0.5476557
252	0xbc050377	-0.008118502
253	0xbeaeb218	-0.3412025
254	0xbdbee692	-0.093213215
255	0xbe5ff3f7	-0.21870409

li1.bias f4 [8]
0	0x3f534b14	0.82536435
1	0x3e8f7b9a	0.28023988
2	0x3f655417	0.89581436
3	0x3f570cb5	0.84003764
4	0x3f04fdc0	0.5194969
5	0x3f24eb16	0.6442121
6	0x3f24e404	0.64410424
7	0x3f604bc1	0.8761559

li2.weight f4 [8, 8]
0	0x3f44b5a9	0.7683969
1	0xbf17daf5	-0.59318477
2	0x3f7fad54	0.9987385
3	0x3f1f93f5	0.6233514
4	0xbf7d0a1b	-0.98843545
5	0x3d4b1449	0.049579892
6	0x3f7120d0	0.9419069
7	0xbe45fd0e	-0.19334814
8	0xbf025978	-0.5091777
9	0xbf77d25b	-0.9680535
10	0xbc8dd0ca	-0.017311472
11	0x3f89a437	1.0753239
12	0xbc8c471a	-0.017123748
13	0x3fbca836	1.4738834
14	0xbea85304	-0.32875836
15	0x3f24c98e	0.6437005
16	0x3ea5be2f	0.3237166
17	0x3f3fb112	0.7487956
18	0x3f85569e	1.0417058
19	0x3f0bbf6a	0.5458895
20	0xbf7d61ac	-0.9897716
21	0x3f24c174	0.64357686
22	0x3f9d4571	1.2286817
23	0xbf09d6a6	-0.5384315
24	0x3f89fcd6	1.0780284
25	0xbf37f456	-0.718572
26	0x3f8385a8	1.0275164
27	0x3f833c64	1.0252805
28	0xbeb2e099	-0.3493698
29	0xbe8153a6	-0.2525913
30	0x3c96f180	0.018425703
31	0x3f9d2386	1.2276466
32	0x3f165a43	0.5873148
33	0xbebbaf74	-0.36657298
34	0xbd94f9b8	-0.072741926
35	0x3e861465	0.26187435
36	0x3f93961f	1.1530188
37	0x3ee03684	0.43791592
38	0xbf756e9e	-0.95871913
39	0x3f694564	0.91121507
40	0xbeb27977	-0.34858295
41	0xbe2fef8b	-0.17181222
42	0xbda9b740	-0.08286905
43	0x3e9a4183	0.30128106
44	0x3c193157	0.009350142
45	0xbe6676d7	-0.22506271
46	0x3be3c8c0	0.0069514215
47	0xbe219e1d	-0.15782972
48	0xbcf6e012	-0.030136142
49	0x3fabd089	1.3423015
50	0x3eba0a06	0.36335772
51	0xbefa8ce0	-0.48935604
52	0x3e987bbe	0.29781908
53	0x3ef64832	0.48101956
54	0x3fb93e17	1.4472073
55	0xbf364eec	-0.71214175
56	0x3f827027	1.0190476
57	0x3e0433d9	0.12910403
58	0x3f65ebfd	0.89813215
59	0xbe24e67d	-0.1610355
60	0x3f5b8aca	0.8575865
61	0xbf38d9f7	-0.7220759
62	0xbea78121	-0.32715705
63	0x3f58ece5	0.8473647

li2.bias f4 [8]
0	0x3eee0280	0.46486282
1	0x3f1503e0	0.5820904
2	0x3e9112ad	0.2833456
3	0x3ddaf875	0.10691921
4	0xbd917437	-0.07102244
5	0xbdd7f170	-0.105440974
6	0x3e910fac	0.2833227
7	0x3f066921	0.52504164

li3.weight f4 [7, 8]
0	0xbfa64193	-1.2988762
1	0x3ee5cd94	0.44883406
2	0xbfe04928	-1.7522326
3	0x3e9062b8	0.28200316
4	0x3ed22136	0.41040963
5	0xbe41628a	-0.18885246
6	0xbf9c5116	-1.2212245
7	0xbeeacee1	-0.4586096
8	0x3e987cd0	0.29782724
9	0xbfb4706f	-1.4096812
10	0x3f555c3e	0.83343875
11	0xbfc3bcee	-1.5292032
12	0xbf18cc2a	-0.5968653
13	0x3e2d6922	0.16934636
14	0x3f447692	0.76743424
15	0xbf9b5af3	-1.213713
16	0x3f0427c2	0.51623166
17	0xbfd180c9	-1.6367427
18	0x3d33ed56	0.043927513
19	0x3e793c6b	0.24339454
20	0xbfd424bb	-1.6573709
21	0x3d97bda3	0.07409217
22	0x3e9596e8	0.29216695
23	0x3ec2c6aa	0.38042194
24	0xbd0e0512	-0.034672804
25	0x3e7e671c	0.2484402
26	0xbe8e5684	-0.2780038
27	0x3ec6602e	0.38745254
28	0xbeeb75d0	-0.4598832
29	0xbea0d2df	-0.31410882
30	0xbfb8f1f3	-1.4448837
31	0x3d7c305a	0.06156955
32	0xbf312fbb	-0.69213456
33	0x3f461306	0.7737278
34	0xbe8aaed6	-0.27086514
35	0xbf8e73fc	-1.1129146
36	0x3e14fb57	0.14549004
37	0xbe188bd3	-0.14897089
38	0x3f03458f	0.51278013
39	0xbfa66024	-1.299809
40	0x3e8da3af	0.27663943
41	0xbe05c4d8	-0.13063371
42	0x3e8a830e	0.27053112
43	0x3de967c8	0.11396748
44	0xbfcfcd3c	-1.6234508
45	0xbe88dc6a	-0.26730663
46	0x3e8ee5f1	0.27909806
47	0xbfbe8b82	-1.4886324
48	0xbf20565c	-0.62631774
49	0xbf9ab7fe	-1.20874
50	0xbf8e32ea	-1.1109288
51	0x3e3957d4	0.1809991
52	0x3f1434bc	0.57892966
53	0x3e2df197	0.1698669
54	0xbec7048c	-0.38870656
55	0x3f46ab50	0.7760515

li3.bias f4 [7]
0	0xbe4d11dd	-0.20026346
1	0x3d4b6792	0.04965932
2	0x3e16bc82	0.14720348
3	0xbe382c13	-0.17985563
4	0x3e2851d9	0.16437472
5	0xbe8af2c1	-0.27138332
6	0x3e213146	0.15741453
